…
  (classification): Sequential(
    (0): Flatten(start_dim=1, end_dim=-1)
    (1): Linear(in_features=20480, out_features=2048, bias=True)
    (2): ReLU()
    (3): Linear(in_features=2048, out_features=256, bias=True)
    (4): ReLU()
    (5): Linear(in_features=256, out_features=10, bias=True)
  )
)

==========================================================================================
Layer (type:depth-idx)                   Output Shape              Param #
==========================================================================================
KnotID                                   [1, 10]                   --
├─Sequential: 1-1                        [1, 20, 32, 32]           --
│    └─Conv2d: 2-1                       [1, 10, 128, 128]         280
│    └─ReLU: 2-2                         [1, 10, 128, 128]         --
│    └─MaxPool2d: 2-3                    [1, 10, 64, 64]           --
│    └─Conv2d: 2-4                       [1, 20, 64, 64]           1,820
│    └─ReLU: 2-5                         [1, 20, 64, 64]           --
│    └─MaxPool2d: 2-6                    [1, 20, 32, 32]           --
├─Sequential: 1-2                        [1, 10]                   --
│    └─Flatten: 2-7                      [1, 20480]                --
│    └─Linear: 2-8                       [1, 2048]                 41,945,088
│    └─ReLU: 2-9                         [1, 2048]                 --
│    └─Linear: 2-10                      [1, 256]                  524,544
│    └─ReLU: 2-11                        [1, 256]                  --
│    └─Linear: 2-12                      [1, 10]                   2,570
==========================================================================================
Total params: 42,474,302
Trainable params: 42,474,302
Non-trainable params: 0
Total mult-adds (M): 54.51
==========================================================================================
Input size (MB): 0.20
Forward/backward pass size (MB): 1.98
Params size (MB): 169.90
Estimated Total Size (MB): 172.08
…
